core/checkpoints/model_final_state.pth (torch, 408498 bytes, 42 tensors)

block1.Theta1 f4 [64, 16]
000000 90 89 21 be bf 08 8b be 6e e6 c9 3d e2 1c 44 ba
       -0.15775132 -0.2715511 0.09858404 -0.00074811105
000010 07 90 6b bd 7f d8 69 3e d2 19 b0 bd c7 6a 21 be
       -0.057510402 0.22836493 -0.08598675 -0.15763389
000020 3d f5 73 3d d9 97 ae 3d ef b6 74 be eb 63 38 3e
       0.05956005 0.085250564 -0.23897909 0.18006866
000030 f3 59 24 be e5 a7 52 3e 44 d5 ab 3d 40 5d ba bd
       -0.16049938 0.20571859 0.083902866 -0.09099817
000040 ab fa b8 3d 31 51 6b be 86 98 51 be b0 1f 09 3d
       0.09032186 -0.22980191 -0.2046834 0.033477485
000050 29 3a 29 3d 67 8c a9 3d 4d 87 29 be 03 5b 32 be
       0.04131523 0.08278733 -0.1655552 -0.1741753
000060 25 3e d2 3d db 8b 4e 3d 4c 1d 22 be a7 3a 1f be
       0.102657594 0.050426345 -0.15831488 -0.15549718
000070 d4 c0 0d bd 52 10 87 3e 09 6c 10 be 68 e4 f3 bd
       -0.034607723 0.2637964 -0.14103712 -0.119087994
000080 fa f1 d3 3d 85 97 99 3e c8 7f 88 be 93 fa 8c bd
       0.10348888 0.29998413 -0.2665999 -0.06883731
000090 c9 4c 91 bd 0f 14 36 bc f3 71 0c be 76 9d 00 3e
       -0.07094724 -0.011113181 -0.13715343 0.12560067
0000a0 66 4c ac 3e 33 e9 a6 bc 53 17 27 3d 21 ad 2e 3e
       0.33652037 -0.02037487 0.040793728 0.17058231
0000b0 be 5b 0c 3e a1 36 f7 3e 10 b3 2b bd 36 f7 30 be
       0.13706872 0.48283866 -0.041918814 -0.17281803
0000c0 23 c6 a7 be 34 6f be bd 5d 37 99 bd cd 9f 10 be
       -0.32768354 -0.09298554 -0.07481263 -0.14123459
0000d0 7e 1f 52 3e a6 1f 80 3e 41 90 15 3d 45 2b 6a bd
       0.20519826 0.25024146 0.036514524 -0.05717017
0000e0 91 31 a8 3d a3 05 ea 3d 13 0b 2f 3e cd c7 2f be
       0.08212579 0.11426856 0.17094068 -0.17166062
0000f0 a9 07 95 3e a6 d4 96 3d a1 25 c8 3d c0 9e 18 be
       0.29107407 0.07364778 0.09772802 -0.14904308
000100 df 29 b9 3e b5 4b 6c 3d 27 bf da 3e a0 d2 e4 be
       0.36164758 0.057689387 0.42723963 -0.44691944
000110 0f f3 b6 3d fe 36 d5 3d cd a0 84 3d 78 45 57 3d
       0.089330785 0.104108796 0.06475983 0.052556485
000120 b9 9f 10 3e d1 a2 2f 3e 52 e9 bb 3e 4c 86 9e 3e
       0.1412343 0.17151953 0.36701447 0.30961835
000130 a4 62 e5 be 2b 31 c1 3c a6 c5 7d be e0 77 38 be
       -0.4480182 0.023583015 -0.24782428 -0.18014479
000140 d5 0e d2 3d 2d 87 bc be 42 7e 58 be 85 d5 26 3e
       0.10256735 -0.3682188 -0.21141914 0.16292389
000150 da 65 f9 be 5e 28 4c bc 51 dd 82 be 98 90 c6 3d
       -0.4871052 -0.012460796 -0.25559476 0.09695548
000160 59 b0 32 3e 50 75 1d 3e 74 47 dc bd 74 c7 94 bd
       0.17450084 0.15376782 -0.10755816 -0.07264605
000170 a6 a1 10 3e 05 6b 00 3e e0 08 db 3c d8 39 96 bd
       0.14124164 0.12540825 0.02673763 -0.073352516
000180 c5 b6 9e 3b 3d a7 1a 3e 33 e4 48 be 9d 3c 9e bd
       0.004843565 0.15102859 -0.19618301 -0.07726405
000190 e4 dc 86 3d f6 d4 ad 3d be 32 6d bd 6c cd eb 3c
       0.065851 0.08487885 -0.05790972 0.028784476
0001a0 fe 99 14 be 8e c3 ea 3d 9e 3f 6a be 7f 03 e9 3d
       -0.14511868 0.1146308 -0.2287583 0.1137762
0001b0 80 8c 0d 3d 94 84 4a bd 18 2c f5 bd 3e 35 75 be
       0.03455782 -0.049442843 -0.11971301 -0.23946092
0001c0 f9 2b e6 3c 6b 80 80 be 22 16 8b 3e 81 a6 4f 3e
       0.02809714 -0.25097975 0.27165323 0.2027836
0001d0 f5 8e 33 3e bb 80 44 3d 8c 9a 3a 3e 76 b5 6b 3e
       0.17535003 0.04797433 0.18223017 0.2301844
0001e0 53 4d 3a 3e 0f 8a 5c be 29 b0 ec 3d 65 af 9f 3e
       0.1819356 -0.2153704 0.115570374 0.31188503
0001f0 e6 53 2a be 4c e2 aa bd a0 98 b5 bc b4 50 9d 3d
       -0.16633567 -0.08343944 -0.022167504 0.076814085
000200 5d 70 d5 bd b0 85 13 3f c5 29 28 bd a3 c0 a6 bd
       -0.10421822 0.57625866 -0.04105546 -0.08142211
000210 25 45 7f be e4 a0 45 bd c2 bf 2b 3e 7e b4 a5 bc
       -0.2492872 -0.04824914 0.16772369 -0.020227667
000220 79 83 4c 3e d8 ab 07 bc 18 4a f4 bd b2 09 c1 3b
       0.19972028 -0.008280717 -0.11928195 0.0058910483
000230 09 bd 18 bd 69 6f bb 3e 59 72 4a 3d 60 16 90 3d
       -0.037289653 0.36608437 0.049425457 0.07035518
000240 a7 ce 91 be 15 10 a3 3d 13 95 52 3e 3e 1a 1c 3e
       -0.28477976 0.07962052 0.2056468 0.15244386
000250 f7 d3 13 3e ea 8f fc 3d 78 5e 8c 3d 04 db 1f bd
       0.14436327 0.12332137 0.06853956 -0.03902723
000260 26 98 1f be 4f d5 33 be d1 11 81 3e 11 8f bf bd
       -0.15585384 -0.1756184 0.25208905 -0.093534596
000270 a7 cb 89 3d f8 00 81 3e 9a 4b f2 3c b4 2f c8 3d
       0.06728297 0.25196052 0.029577065 0.09774724
000280 24 ad 39 be da a4 1f be 33 69 ed 3d 46 03 15 3e
       -0.18132454 -0.1559023 0.11592331 0.1455203
000290 f4 52 8d 3c 5f 02 59 bd ea c9 6e be 81 9f 67 be
       0.01725147 -0.052980777 -0.23319212 -0.2261944
0002a0 a1 c2 e4 bd 6a 28 8f bd 20 a7 d6 be e0 19 8c 3c
       -0.11169935 -0.0699013 -0.4192438 0.017102182
0002b0 fa 5d 92 3e cb 88 64 be c0 a5 9c 3d be b4 19 be
       0.28587323 -0.22317807 0.07648802 -0.15010354
0002c0 0e 53 74 3d 77 f4 c0 3e ce 8f 09 3e 76 78 6e 3d
       0.05964952 0.37686512 0.13433763 0.05822035
0002d0 53 ae 33 be 56 ae 81 3e 76 48 66 3c a1 c0 7e 3c
       -0.17546968 0.2532832 0.014055362 0.015548856
0002e0 aa e7 01 3e 4a 61 36 bd 35 b3 5c 3e 6d 5b 3e be
       0.12686029 -0.044526376 0.21552737 -0.18589564
0002f0 23 e6 89 3e bd f0 e0 3d 80 ca 4c 3c 10 f0 02 3e
       0.26933393 0.10983417 0.012499452 0.12786889
000300 7c 48 85 3d d4 79 1a be 8f a4 6b 3e 9c eb 70 be
       0.06507966 -0.15085536 0.23011993 -0.23527378
000310 5b 88 c0 be c3 04 21 3e e8 5c 57 3d 2b 97 79 3e
       -0.3760403 0.15724473 0.052578837 0.24374072
000320 c3 ba 8c 3e 30 0f 08 3e 2a 54 b9 3e 87 0b b0 3e
       0.27486238 0.13287044 0.36197025 0.34383795
000330 19 70 1e be ea 40 82 3d 08 8e ec bd 38 35 71 3e
       -0.1547245 0.063600376 -0.11550528 0.23555458
000340 90 61 81 be 04 28 16 bd 38 c9 a0 bd 39 ee 81 3e
       -0.25269747 -0.036659256 -0.078508794 0.25377062
000350 4b 00 d6 3d 3d cf 87 3e 7f 4b 14 be e3 2b 95 bd
       0.10449275 0.26525298 -0.14481924 -0.07283761
000360 cc 4f 7d b9 c0 fa a7 bd 57 94 6c be 07 d9 17 be
       -0.00024157687 -0.08202124 -0.23103462 -0.14828883
000370 42 26 99 3e f7 6b 15 be 95 09 28 be b0 c2 cd bc
       0.29912 -0.14591967 -0.16409905 -0.025117248
000380 c8 67 79 3e 06 f5 f8 bd af 32 b8 3e 1d 37 8f 3e
       0.24355996 -0.121561095 0.3597617 0.27971736
000390 15 00 17 3e b8 eb 1e 3d fd 90 81 be 37 7c 00 3e
       0.14746125 0.038799018 -0.2530593 0.12547384
0003a0 05 3a 90 3e 46 01 8f 3e 5e 48 d0 bc 0a c2 19 3e
       0.28169265 0.2793066 -0.025425132 0.15015426
0003b0 38 e4 db be 5f 35 a1 be a2 ba 14 3e 2e 89 62 be
       -0.42947555 -0.3148603 0.1452432 -0.22122642
0003c0 48 a0 bb 3b e1 62 d5 3d 88 31 86 be 0d 98 2d 3d
       0.005725894 0.1041925 -0.26209664 0.042381335
0003d0 aa 81 89 3d 3d 3c 55 3c 32 4c 4d be bc 9b 23 3e
       0.067141846 0.01301485 -0.20048597 0.15977377
0003e0 c2 74 8c be d7 8a 2b 3d e4 c0 67 bd 0b b2 f7 bd
       -0.2743283 0.041880455 -0.05658044 -0.12094506
0003f0 10 eb b3 3d d8 13 2c bf 28 18 d0 3d 34 cd e4 3d
       0.08785069 -0.6721778 0.101608574 0.11171952

block1.temporal1.conv1.weight f4 [64, 2, 1, 3]
000000 cf a8 59 bd 73 c5 55 be 9e 3d 81 3e 51 a6 01 3e
       -0.053139504 -0.20876102 0.25242323 0.12661101
000010 6f 0d 70 be e3 3b 7e bd 4e c8 60 be cc 79 0c 3e
       -0.23442625 -0.06206883 -0.2195141 0.13718337
000020 45 a8 b6 3c 5a 46 98 3e a7 6a 8d 3e 0f fd 59 3d
       0.022297034 0.29741174 0.27620432 0.05321985
000030 7e 90 1a be 2c 0d 37 be e3 4d e7 bd 64 7f ec bd
       -0.15094182 -0.17876118 -0.112941526 -0.11547735
000040 4a 7d e2 3d 57 cd 19 bf 49 fe c2 3e 26 9b 98 be
       0.11059053 -0.6007895 0.3808463 -0.2980587
000050 bd 97 1b 3f 5e 51 9c 3c eb 2a 4e 3e 58 b4 22 3d
       0.6077841 0.019081768 0.2013356 0.03972277
000060 e3 fd 6d 3d 62 90 16 3d 2e aa 96 3f 76 35 63 3d
       0.058103453 0.036758788 1.1770685 0.055470906
000070 06 31 40 3e 55 f1 a0 be db e6 38 3e 79 af 16 3e
       0.18768701 -0.31434122 0.18056814 0.14715375
000080 8a 8a a7 bc a9 f2 44 bd 2a 57 76 3d b7 f8 a8 3e
       -0.020451803 -0.04808298 0.06014172 0.33002254
000090 ff 73 f7 3a 4d 33 11 be 20 c9 77 bd b3 7c 74 be
       0.0018879174 -0.14179726 -0.060494542 -0.23875694
0000a0 a9 d7 48 3e d2 9d 34 be 12 cf 88 be 55 9f a3 3e
       0.19613518 -0.17638329 -0.26720482 0.31957498
0000b0 8d 36 f5 3e bc 5f 71 3d 4a 95 80 bd d4 96 2b bd
       0.4789318 0.05892919 -0.06278475 -0.041891888
0000c0 ec b7 26 3e 28 6f c1 be 52 a7 84 be f2 c0 f8 3e
       0.16281098 -0.37780118 -0.25908905 0.48584706
0000d0 24 d4 fc 3e 0a 5a 08 be d1 c4 9c be a0 2f 3e 3d
       0.493806 -0.13315597 -0.3061891 0.046432137
0000e0 65 a9 26 be 12 f3 81 3d 42 25 40 3e 45 fe d4 3d
       -0.16275556 0.0634519 0.18764213 0.104000606
0000f0 43 f0 1a be 17 0a af bd 7b 28 21 3e 46 b3 8b be
       -0.15130715 -0.08546846 0.15738098 -0.27285212
000100 15 fc 95 bd 29 43 ed 3c e8 1e 70 be 86 32 e5 bd
       -0.073234715 0.028962689 -0.2344929 -0.11191277
000110 e8 91 2c 3e 68 2c 91 3e 6c 7c 00 bd cf b8 ad be
       0.16852534 0.28354192 -0.031368658 -0.3393006
000120 ef 91 f7 3d 3c 30 e6 bd 8f 1b e0 3e d0 d2 90 3e
       0.120883815 -0.11239669 0.43771026 0.28285837
000130 81 6b 8b bc 35 ca 2b bd 4f 83 01 3e 11 c7 06 be
       -0.017019035 -0.041940887 0.12647747 -0.13161875
000140 69 a2 c1 3e 1b 94 9e be 06 f6 f8 bd 6e cb bc bd
       0.37819222 -0.3097237 -0.121563 -0.09218489
000150 c6 82 40 be 34 0e 99 be cc df 11 3f ad 03 43 3e
       -0.18799886 -0.2989365 0.5698211 0.19044371
000160 7b 62 15 3d ed e0 d7 3e 01 f1 38 be 89 c6 68 be
       0.03647087 0.42163792 -0.18060686 -0.22731985
000170 f4 1b 9b 3d 84 a1 fa bd da 94 d0 be 5f 31 a1 be
       0.07573691 -0.12237838 -0.40738565 -0.3148298
000180 a7 c6 5d be 37 6c 51 3e bf 66 db 3e 70 f3 cc 3e
       -0.21657811 0.20451437 0.42851827 0.40029478
000190 fe f6 79 be 96 93 b7 be db 00 83 be 4f 7b 04 be
       -0.24410626 -0.35854787 -0.2558659 -0.12937663
0001a0 46 07 bd 3e 96 2c 8b be 98 d9 9b 3e 0f 08 b8 bd
       0.36919612 -0.27182454 0.30439448 -0.08985912
0001b0 05 f4 72 be f7 5d 2b 3e 0d c6 b3 bd c6 57 07 3e
       -0.23725899 0.16735063 -0.087780096 0.13217077
0001c0 b1 55 e0 3c 5b 9e 8c 3d 74 67 e4 3d a7 c9 8a be
       0.02738461 0.068661414 0.111525446 -0.27106974
0001d0 35 f6 b3 be d1 c4 f5 bd 3e fa 39 be e7 d2 fd 3d
       -0.3514878 -0.120004304 -0.18161866 0.12393742
0001e0 47 9f c1 3d 84 f9 2c be 56 55 8c 3e e8 0e a6 bd
       0.09454208 -0.16892058 0.27408856 -0.08108312
0001f0 02 e0 5f 3e 5d 8e d7 bc 48 85 97 be d9 d0 72 be
       0.21862796 -0.026313001 -0.29593873 -0.23712482
000200 18 c5 9d 3e 0f 28 24 3e 8d 22 90 be 41 60 46 be
       0.30814433 0.16030906 -0.2815136 -0.19372655
000210 7b c4 ad be 93 f0 dc bc 2d f8 4a 3f a0 01 27 bd
       -0.33938965 -0.026970183 0.79284936 -0.040773034
000220 6d e1 c1 be 9d 77 f7 3d 91 86 ed 3e 5c 4a 16 3c
       -0.378673 0.12083361 0.4639173 0.009173002
000230 be da 23 bd 5b 91 07 3e b8 9e a0 3c 1f ab 44 be
       -0.04000353 0.13239042 0.019606933 -0.19205903
000240 e2 8b a7 be b4 b8 25 be a0 e7 fc 3c 39 96 98 bd
       -0.3272391 -0.1618374 0.030872166 -0.07450528
000250 80 b6 97 3e e2 63 a0 bc 9f 21 25 bd 46 b5 cc be
       0.29631424 -0.019578878 -0.040315267 -0.3998205
000260 98 6e 08 bf 68 30 1a 3d 9c 5a 8c 3e 2f bd 50 bd
       -0.5329375 0.03764382 0.2741288 -0.05096167
000270 37 5b 99 be 59 d5 a6 3e 18 77 dd 3e ce f0 82 be
       -0.29952404 0.32584646 0.43254924 -0.25574344
000280 ef 4a a3 bd ed c2 7a 3d 3d 59 69 be 57 32 c2 be
       -0.07973277 0.061221052 -0.22787948 -0.3792903
000290 7e 6e 86 3e 2f 6d bf be b4 f6 50 be c0 18 c2 be
       0.26256174 -0.37387988 -0.2040661 -0.37909508
0002a0 45 82 97 3e 99 16 bb 3d 27 22 9d 3e a1 ef 68 be
       0.29591575 0.091351695 0.3069012 -0.22747661
0002b0 da f6 c8 3e fd 90 98 3d 28 9b 6b be 59 ff 67 bd
       0.39250833 0.07449529 -0.23008406 -0.056640003
0002c0 af 92 d6 be d8 bb 9c bd 53 59 18 3e 0f b6 a3 be
       -0.41908786 -0.07653016 0.14877824 -0.31974837
0002d0 3b 7e fe 3d 85 ca db 3d 8a 51 45 bd fe 92 3b 3e
       0.1242642 0.10731987 -0.048173465 0.18317792
0002e0 14 86 b1 bd e6 2b 32 be 9a db 33 be 75 76 ab 3e
       -0.086681515 -0.17399558 -0.1756424 0.33488813
0002f0 da d9 0e 3e 29 48 91 3e 0c a4 c4 3e 6d 74 08 3f
       0.13950291 0.28375366 0.38406408 0.5330265
000300 12 ed b0 3e 22 3a f7 be 41 47 1c 3e 71 d8 89 3b
       0.3455587 -0.4828654 0.15261556 0.00420671
000310 24 66 3e 3e d8 a6 bf bd 48 e8 62 3e 15 e1 b6 be
       0.18593651 -0.09357995 0.22158921 -0.357186
000320 5d fb 0f 3e 83 2b d2 3e 92 68 ad bd 04 79 ad be
       0.14060731 0.41048822 -0.08467211 -0.3388139
000330 b9 29 82 be d8 98 ef bb b9 46 83 bd 68 f4 89 3d
       -0.25422457 -0.0073119216 -0.06409974 0.0673607
000340 59 87 93 3d f3 f0 a4 3e bd 7e 9d bd af 93 64 3e
       0.0720355 0.3221508 -0.07690189 0.22321962
000350 07 72 c0 be cf 9f b9 3e 09 9a 00 3e 4d 0d ac bd
       -0.37586996 0.36254737 0.1255876 -0.084009744
000360 fe a5 f7 3e 9e 40 07 3f 71 65 c9 3e 08 81 2e bd
       0.4836883 0.52832973 0.39335206 -0.042603523
000370 cb c8 e8 3d 00 99 9b bc 7a 31 2a be 0a 43 96 bc
       0.11366423 -0.018993855 -0.16620436 -0.018342514
000380 52 39 54 be dc dd ac be 4b 8d 9f bc 34 15 94 be
       -0.20724991 -0.33763015 -0.019476553 -0.28922427
000390 f4 16 ac be 25 78 1e be 80 d3 35 be 95 f6 c2 3d
       -0.33611262 -0.15475519 -0.17756462 0.09519688
0003a0 d5 20 82 3e 8f cd c6 3e ba cf 67 3e ed 57 b8 3e
       0.25415674 0.38828704 0.22637835 0.36004582
0003b0 76 a6 3a 3f 61 1e f0 bd 72 af 9f 3e 95 af 26 be
       0.7291025 -0.11724544 0.31188542 -0.16277917
0003c0 9d 23 c4 bc 2f 51 e9 bd 95 b0 5e be 19 2e d5 be
       -0.023942763 -0.11392438 -0.21747048 -0.41636732
0003d0 06 77 57 be 6d 8a 7c 3e 0e 8e 56 be 03 e4 d5 be
       -0.21041498 0.2466218 -0.20952627 -0.41775522
0003e0 f1 fd 7f bd f9 6c 9c 3e 55 6e 65 3d 66 70 00 be
       -0.062498037 0.3055189 0.056013424 -0.12542877
0003f0 96 e4 42 be 38 6f d8 3e f2 f0 b7 be 1f 8d 62 3e
       -0.19032511 0.42272353 -0.35926014 0.22124146

block1.temporal1.conv1.bias f4 [64]
000000 1b e6 b9 3c 16 2c 1c 3e 58 0b 49 be a3 ef 46 3e
       0.02269273 0.15251192 -0.19633234 0.19427352
000010 97 89 16 3e 67 26 7f 3e c5 ac 06 be d7 46 1b bf
       0.14700924 0.24916993 -0.13151844 -0.6065497
000020 53 44 d7 be 57 63 8a be 9d 35 d0 3e 8f 7c 2d be
       -0.42044315 -0.27028915 0.40665904 -0.16942047
000030 c0 74 97 bd 77 bb 95 bc a4 cf 3b 3e 69 c4 d7 3e
       -0.07395315 -0.018277867 0.18340927 0.42142037
000040 bf e1 67 3d 9c f6 b0 3e ce 8f a5 b9 08 76 20 bf
       0.056611773 0.34563148 -0.00031578395 -0.626801
000050 6f 59 28 3e be a8 e5 3e e7 aa 25 bc c0 c2 d2 bc
       0.16440366 0.44855303 -0.010111547 -0.02572763
000060 6f 01 17 3c 44 5f f9 3d e0 e5 1c be 33 36 5b bd
       0.00921665 0.121763736 -0.15322065 -0.053518485
000070 b5 ef 96 be 4f 71 3b 3e 7d 0a 12 be 5d 2b a8 be
       -0.29479757 0.18304943 -0.14261813 -0.32845584
000080 3e 23 a1 be 03 15 d7 be 70 fd 88 bd ba ef 8e bd
       -0.314722 -0.42008218 -0.06688964 -0.06979318
000090 52 f4 e7 be 37 b0 75 be 96 93 a0 3d e6 42 3a bd
       -0.4530359 -0.23993002 0.0784065 -0.045473956
0000a0 66 18 47 3e 58 7e ad be 7d 2e d5 3e 80 74 5b 3e
       0.19442901 -0.33885455 0.4163703 0.2143116
0000b0 83 72 0b be 84 22 88 3e 4b f0 12 bf 8f 38 1a bf
       -0.13617902 0.26588833 -0.5739791 -0.6024255
0000c0 b1 bb 7c be 3c 44 30 3e 6e 62 dd 3e 53 41 51 be
       -0.24680974 0.1721353 0.43239158 -0.20435075
0000d0 13 10 ab 3e 14 04 e9 3d e7 63 8d be 32 26 17 3d
       0.334107 0.11377731 -0.27615282 0.03690166
0000e0 8e 04 ea 3d 69 fe c5 be a3 c9 4a bf 3a d6 a8 be
       0.1142665 -0.38670662 -0.79213923 -0.32975942
0000f0 c8 6b ec 3d ea df 8b 3e 72 f8 0f 3e 6f ad 91 be
       0.11543995 0.2731927 0.14059618 -0.28452632

block1.temporal1.conv2.weight f4 [64, 2, 1, 3]
000000 00 6a b3 be 55 b1 73 3e 99 14 89 3c 4d 8f 0b bd
       -0.3504181 0.23798116 0.016733455 -0.03407221
000010 08 d0 9e 3e a1 c7 30 3e 9b b9 06 3f 2c bc 25 3f
       0.3101809 0.17263652 0.5262696 0.6474025
000020 b9 10 c8 3d da ab 95 3d cb 40 9e be e2 11 e0 3e
       0.097688146 0.07308169 -0.30908808 0.43763644
000030 80 16 87 be 93 d1 bf 3e f1 b3 82 3e 86 63 32 3d
       -0.26384354 0.3746458 0.2552791 0.043551944
000040 f6 46 eb be 5a d4 97 be 7a 79 6f be f6 cd af 3d
       -0.45952576 -0.296542 -0.23386183 0.08584206
000050 16 4b d8 3e 0f 6d aa 3e a8 32 19 3e 1d 26 c6 be
       0.42244786 0.3328633 0.1496073 -0.38700953
000060 cd 76 e3 be 5c 1b 52 3d 5d 80 37 3f 94 51 f6 3d
       -0.44426575 0.051295623 0.7168024 0.120272785
000070 ab 86 af 3e 09 e2 d1 3d 6e a4 c9 be 07 16 f8 bd
       0.3428243 0.10248191 -0.39383262 -0.121135764
000080 ee bf 14 3e 38 02 a4 bd e5 db fc 3d 0e e6 e8 be
       0.1452634 -0.08008236 0.12346629 -0.45488018
000090 cd d5 e5 3c 5a 81 08 be de bf a4 3e 70 be 44 3e
       0.02805605 -0.13330594 0.32177633 0.19213271
0000a0 46 73 4e bd 94 d9 b4 be fc 84 e2 bd 07 1a 6a 3e
       -0.050402902 -0.3532225 -0.11060521 0.22861491
0000b0 b6 1f 90 3d 3b a8 92 ba 25 5a bb be 3c d1 ab 3e
       0.070372984 -0.0011189053 -0.36592212 0.3355807
0000c0 f7 7a 86 3e 7f 4b 95 be 12 e1 27 be 61 b0 27 3e
       0.2626569 -0.2915916 -0.16394451 0.16375877
0000d0 36 e6 e2 bd d1 cb c8 be 4c aa 23 3e a9 7f 06 bd
       -0.110790655 -0.39218 0.15982932 -0.03283659
0000e0 c5 16 61 3e d0 dc 8f 3e 81 93 c8 3e af 2b 48 3e
       0.21981342 0.28098154 0.39175037 0.19547914
0000f0 6c 23 18 bf 55 d9 1a bf b9 84 49 3e d2 fa 8a be
       -0.5942905 -0.6048787 0.19679536 -0.27144486
000100 1b 6f b3 3e ca 36 44 be bc ad a2 3e 38 ff 84 3e
       0.35045704 -0.19161525 0.31773174 0.25975966
000110 19 c5 96 be 02 f3 db be 1f ba c6 be 03 e8 11 bf
       -0.2944725 -0.42958838 -0.38813874 -0.56994647
000120 d1 6a a6 be 7c 68 ca 3e 53 41 1f 3f 3a 6b 13 be
       -0.3250337 0.3953284 0.6220905 -0.14396372
000130 d2 09 e2 bd c7 61 de 3d 59 be 06 3d 32 63 c6 bd
       -0.11037029 0.10858493 0.032896373 -0.09686889
000140 0f c5 cd 3e 90 17 bd 3e 88 ce 93 3d 01 66 9f 3e
       0.40189406 0.3693204 0.07217127 0.3113251
000150 17 d8 d4 bd 5d 5f 1d bf 7b b1 09 3f 46 f9 4d 3e
       -0.10392778 -0.6147364 0.5378644 0.20114622
000160 35 28 a8 3d f4 3a 97 be c1 a1 d6 3e f1 fc 7c 3d
       0.08210794 -0.29537165 0.41920283 0.06176466
000170 f3 cd 9f be ca 8a f1 be fe c7 84 be fe 3e ab 3e
       -0.31211814 -0.471762 -0.25933832 0.33446497
000180 54 10 1f 3e 25 1d eb be 83 32 c4 3e a2 0d eb 3e
       0.15533572 -0.45920673 0.38319787 0.4590884
000190 12 f4 8e 3e 7e ac 47 3c 4c aa bb 3e ca 7d ae be
       0.27920586 0.012187121 0.36653364 -0.34080344
0001a0 a7 e8 9e 3e e0 11 42 3e fc 6c 1e be f2 1c b4 3e
       0.31036875 0.18952131 -0.15471262 0.35178334
0001b0 c2 38 64 be ed d5 eb 3d af c3 8b be ee e5 bb be
       -0.22287276 0.115154125 -0.27297732 -0.3669886
0001c0 7a d9 99 bc 73 3e d7 3e 84 76 8f be 4f f4 8a bd
       -0.018780459 0.42039832 -0.28020108 -0.067848794
0001d0 21 aa 5d 3d eb 18 45 3d 84 12 8b be 70 cc b9 3d
       0.054117326 0.048119467 -0.27162564 0.090721965
0001e0 03 40 0b be b2 65 bf 3d 9d 61 2f 3e f5 96 5a 3c
       -0.13598637 0.09345569 0.1712708 0.013341655
0001f0 87 e8 a4 bd 98 6a a9 3e 7d d6 9f be 62 4f 80 3e
       -0.080521636 0.33089137 -0.3121833 0.25060564
000200 6b 8f a9 3e a7 b8 20 3e 09 18 a1 be e2 4b c9 3d
       0.33117232 0.1569544 -0.3146365 0.098289266
000210 5c 68 8e be 91 89 68 be cd eb 6e 3e cb 56 ff bd
       -0.27813995 -0.22708727 0.23332138 -0.12467726
000220 93 aa 27 be 8e d2 d5 be c8 c2 a2 be 09 df c8 bc
       -0.16373663 -0.41762203 -0.3178923 -0.024520414
000230 f7 cc 29 3e f4 e0 56 be 92 1f 82 be 6c 9b db be
       0.16582094 -0.2098425 -0.2541471 -0.42892015
000240 e2 93 80 be 9b 25 7a 3d eb a1 f3 bd 9b 2c bd 3d
       -0.25112826 0.06107102 -0.11896118 0.092370234
000250 88 ce b6 3e 1c 6b 9f be c4 c5 cb bd ce 94 f0 3d
       0.35704446 -0.31136405 -0.0994983 0.11747132
000260 0a a1 fc be ac af 4e be b4 2c a1 be ac 64 3c 3e
       -0.49341613 -0.20184201 -0.31479418 0.18397778
000270 85 11 20 bc 0d 11 6c 3e 5c 09 b3 3e 00 a2 78 be
       -0.009769802 0.2305338 0.34968078 -0.24280548
000280 58 57 2c be b3 62 bb 3e e7 d5 4a 3d 2a ca 2c be
       -0.16830194 0.3659874 0.0495204 -0.16873994
000290 8c eb ad 3e b6 6c 8b 3e a8 c1 9a be a6 08 9e be
       0.3396877 0.27231377 -0.30225873 -0.30865973
0002a0 ad eb 20 3e 1f 96 63 be 67 1f 7a be ce 0b 07 be
       0.15714903 -0.22225235 -0.24426042 -0.13188097
0002b0 80 ab 99 be 72 62 a4 3e 82 3f cf 3d 1f a3 cf be
       -0.30013657 0.32106358 0.10119535 -0.4055414
0002c0 a5 fd 27 be 12 2b 92 3e 47 4e af be 1c 6a d6 be
       -0.16405351 0.28548485 -0.34239408 -0.4187783
0002d0 1d 0e d2 bd 65 c5 0e bf 33 98 13 bf c6 fa b7 3e
       -0.10256598 -0.5576995 -0.5765411 0.35933512
0002e0 37 ff 1f 3d fb e4 85 3e 70 78 57 3a fc 45 f3 3e
       0.03906175 0.2615126 0.00082195457 0.4751433
0002f0 17 56 94 be 5d d3 e9 3e 50 fe ec bd 5e c8 4f bd
       -0.2897193 0.4566907 -0.11571944 -0.050728194
000300 96 14 92 3e c0 4b cc 3d 87 de 80 be b8 73 85 ba
       0.2853133 0.09975386 -0.25169775 -0.0010181582
000310 63 7a 8f 3e 01 a7 a6 be fd 19 47 3e a2 1c bd 3e
       0.2802306 -0.3254929 0.19443507 0.36935908
000320 a9 20 96 be c5 c0 bf 3d bb b0 f2 be 6f 3e ed be
       -0.29321793 0.0936294 -0.4740046 -0.46336696
000330 cb 84 ac 3a be 4e f0 be b5 e5 ed be 5d 3a 66 3e
       0.0013162134 -0.46935076 -0.46464315 0.22483201
000340 4c 81 b0 bd 1f 8f 92 be 39 f5 d6 3e 25 36 91 be
       -0.086184114 -0.28624818 0.41983965 -0.28361621
000350 2d cf c7 bc cd a6 b9 be 7d cc a3 be 95 74 57 bd
       -0.024390781 -0.3626007 -0.3199195 -0.052601416
000360 94 12 17 3f 80 cb 83 3e f3 86 55 bc 82 7d 1f 3e
       0.5901272 0.25741196 -0.013032663 0.15575221
000370 ba e4 d8 bd 92 b7 98 be 05 4c 63 3e 6f ac 06 3e
       -0.10590501 -0.29827553 0.22196968 0.13151716
000380 60 a6 03 bf c7 9d b2 bd 3f d7 43 bd 1d 90 00 be
       -0.51425743 -0.087215 -0.047812697 -0.12554975
000390 41 d7 8d bd b0 43 df bd f6 9d cd 3e c4 b0 75 3e
       -0.06925822 -0.10901582 0.40159577 0.23993212
0003a0 a8 6a 83 3e d6 ce 90 3e 88 d3 4a be 39 50 69 3e
       0.2566731 0.28282803 -0.19807255 0.22784509
0003b0 04 fb b8 3e fd af 13 be 52 e8 a1 3d 3c 2c d5 3c
       0.3612901 -0.14422603 0.0790564 0.02602207
0003c0 e4 b6 5c be b9 f2 ac be 33 6b 4b 3e 85 61 5d 3e
       -0.21554142 -0.33778933 0.19865112 0.21619232
0003d0 00 d5 83 3e 5a 8a 3c 3e b2 73 ec 3e ca 6a 88 3e
       0.25748444 0.18412152 0.4618202 0.26643974
0003e0 b4 9a 38 3f 7c 2c 18 bd 3b f7 03 3e 63 0c 42 3e
       0.7211106 -0.0371518 0.1288728 0.18950038
0003f0 04 e0 92 3c a4 bd ca 3c 4c fc 47 be 9e 26 98 be
       0.017929085 0.02474863 -0.19529837 -0.29716963

block1.temporal1.conv2.bias f4 [64]
000000 c6 1b 8e 3e 2d 39 9a be cc 58 6d bc ff 4a 21 3d
       0.27755564 -0.30121747 -0.014486503 0.039378162
000010 d1 31 bc be 92 11 a9 bd 00 a6 71 bd e5 4f 28 bf
       -0.36756757 -0.082553044 -0.0589962 -0.6574691
000020 a2 8d 62 be 6f db 63 3d 83 cb cb 3e 19 34 16 3e
       -0.22124341 0.05562919 0.39803705 0.14668311
000030 2d 89 4e be 23 1a bc 3e 28 50 94 3e 5d 69 0f 3e
       -0.20169516 0.3673869 0.28967404 0.14005037
000040 db 7d 31 be 8b 4a 95 3e 79 68 10 3e 01 ab 14 bf
       -0.17333166 0.29158434 0.14102353 -0.5807343
000050 85 96 a7 bb 44 f9 94 3e dc 25 4a 3e 30 cf 79 3e
       -0.005114379 0.29096425 0.19741005 0.24395442
000060 de 59 e9 bc d5 f6 92 be c1 e7 1d bf 7c 12 81 3d
       -0.028485235 -0.28703943 -0.61681753 0.06302354
000070 1b 20 70 bd bd 25 a2 3d 61 c2 14 3e 9e 36 92 3d
       -0.05862437 0.07917354 0.14527275 0.07139324
000080 16 62 c5 3e 81 35 eb 3c ff 39 9a be 09 37 8e be
       0.38551396 0.028712036 -0.30122373 -0.27776363
000090 8b 62 44 bc 95 b6 a0 be c3 74 3b 3e 61 07 c0 bc
       -0.011986385 -0.313893 0.1830626 -0.023441019
0000a0 95 97 c1 3d 7b b8 ed be 97 fb 45 be b5 84 09 bf
       0.0945274 -0.4642981 -0.19334255 -0.5371812
0000b0 3f e5 99 3e e3 fe e0 be b0 87 de be 03 29 8e 3d
       0.30057713 -0.43944463 -0.43462896 0.06941416
0000c0 9d d4 b3 be 45 61 8b 3e e8 07 9b bc 41 71 b5 3c
       -0.3512315 0.27222648 -0.018924668 0.02214873
0000d0 ea 58 93 bd a7 97 d5 3e 43 b5 85 be 07 ef 02 bd
       -0.071946934 0.41717264 -0.26114854 -0.031966235
0000e0 13 ef 9b 3a 0f 2b 52 be 07 71 2c bf 32 60 9d bc
       0.0011896811 -0.20524238 -0.67359966 -0.019210909
0000f0 4a 5d a6 bb 9a b7 01 bf c1 51 05 3f 37 5d 93 be
       -0.005077039 -0.5067078 0.5207787 -0.28782055

block1.temporal1.conv3.weight f4 [64, 2, 1, 3]
000000 71 60 55 3d cb 9c 88 3e 9a fe 43 3d d1 76 ea bd
       0.052093927 0.26682124 0.04785023 -0.11448444
000010 2d 68 b8 3e 70 bd 9c 3e 59 42 53 bd e1 ef e8 bd
       0.3601698 0.3061328 -0.051576946 -0.11373878
000020 5b 13 b0 bd 1a ed b0 3e 5f c8 71 be 49 34 23 3e
       -0.08597442 0.34555894 -0.23611592 0.15937914
000030 b8 ef 0a 3e e0 89 c0 3e e9 70 91 bd a3 15 56 3e
       0.13568008 0.3760519 -0.07101614 0.20906691
000040 12 1e 97 be 5f dc d3 be 13 65 21 be 30 a6 bd be
       -0.2951513 -0.41379067 -0.15761213 -0.37040854
000050 ef ce 92 bd d8 d7 95 3e 0f af 31 3e 66 e0 63 be
       -0.07168376 0.29266238 0.17351936 -0.2225357
000060 24 08 aa be 71 07 73 3e 00 8e a1 3f 86 33 b7 3e
       -0.33209336 0.23733307 1.262146 0.35781497
000070 b2 60 4b be b7 09 b4 be 1b 5d 1d 3e 7d 0e 5b 3e
       -0.19861105 -0.35163662 0.15367548 0.21392246
000080 f2 4e 48 3e dc aa 1f 3b 19 66 0d 3e d0 11 67 be
       0.19561365 0.0024363315 0.13808478 -0.22565389
000090 1e 61 74 be b3 e2 18 3e b3 f8 c7 3e c9 86 7a be
       -0.23865172 0.14930229 0.3905693 -0.24465479
0000a0 9f 47 59 3e 46 b4 15 be c3 76 9a be f9 d7 14 be
       0.21218728 -0.1461955 -0.30168733 -0.14535512
0000b0 bb d1 01 3f a6 2c ba 3e dd 0c af 3e 69 2e ce 3e
       0.5071065 0.3636219 0.341895 0.40269783
0000c0 44 48 35 bd 15 21 3b 3e 66 df 5b 3e b4 5f 26 bc
       -0.04425837 0.18274339 0.21471938 -0.010154653
0000d0 04 91 b7 3e da f7 25 be 86 61 09 be 4b 3e 88 3e
       0.35852826 -0.16207829 -0.13416108 0.26610026
0000e0 2a 59 d6 3e a6 30 c2 3e 8d 1d 0e 3c 43 4f b0 be
       0.41864902 0.3792774 0.008674038 -0.34435472
0000f0 c8 e5 8c 3e b3 1d 21 3d f3 ef c3 3e d2 50 96 bd
       0.2751906 0.039334964 0.38269004 -0.07339634
000100 16 8c 9d 3e 73 e8 08 3d 88 29 92 3e 8c b3 26 3e
       0.3077094 0.033424806 0.2854731 0.16279429
000110 58 3e 10 be bf cd 68 3e 65 0c b4 3e 65 5d e9 be
       -0.14086282 0.22734736 0.35165706 -0.45579067
000120 2e 16 96 3e c9 72 e5 3e fa 3f 60 3f d6 5b 5e bc
       0.29313797 0.44814137 0.8759762 -0.0135717
000130 76 8d 62 be 52 76 54 be bd f5 82 bd b5 f5 9a be
       -0.22124276 -0.2074826 -0.06394527 -0.30265585
000140 6b e6 38 3e ce cc 5e 3e 86 3d c1 bd a7 d7 ae 3e
       0.18056647 0.21757814 -0.09435563 0.34148905
000150 f2 96 f2 3d 6d a3 53 3e 40 28 30 3f a3 0a e1 bd
       0.11845197 0.2066781 0.68811417 -0.10988357
000160 d2 1a a4 be 6d c9 50 be 66 48 00 3f 19 44 6d be
       -0.32051712 -0.20389338 0.5011047 -0.23170508
000170 6a db a3 bd 23 36 27 3e 34 7e 2b be 46 5b 4f 3e
       -0.08000834 0.16329245 -0.16747361 0.20249662
000180 c5 02 78 be 7c 31 f3 bc 97 92 dc 3e cc 2c 83 be
       -0.24219806 -0.029686682 0.4308059 -0.25620115
000190 04 26 b7 bd a5 e3 2a be 99 5a 82 bd eb 3e 60 3e
       -0.08942798 -0.16688402 -0.063649364 0.21899001
0001a0 3b 8d 4f 3f cd c3 47 3e 64 0d 3d be 90 c7 10 bd
       0.81074876 0.19508286 -0.1846214 -0.035346568
0001b0 f8 11 18 3d 99 dc be 3e 10 68 a3 be ea 9e 67 be
       0.03712651 0.37277678 -0.3191533 -0.22619215
0001c0 d5 45 d6 be a9 b4 57 3e a2 e9 e1 bc 0c 98 16 be
       -0.41850153 0.2106501 -0.027577225 -0.14706439
0001d0 14 a1 01 bf cc 5d 80 bd 07 ae 9b be 3c bb 40 3e
       -0.5063641 -0.0626789 -0.3040621 0.18821424
0001e0 42 a8 b7 be c8 83 55 be 5c b0 d4 3e f5 3a 7e be
       -0.35870558 -0.20851052 0.41540802 -0.24827178
0001f0 fa 7f 4c be e9 17 64 be 47 72 50 be 2e 20 b4 3e
       -0.19970694 -0.22274746 -0.20356093 0.351808
000200 b0 8f 28 3c 8a 2e a2 be ab ee 4d 3e 8d 0a 94 3e
       0.010288164 -0.3167613 0.20110576 0.289143
000210 f6 d6 7a 3e 59 3d 55 be 1d 17 04 3f ea 23 87 bc
       0.24496064 -0.20824184 0.5159777 -0.016496617
000220 79 91 70 3e d0 f9 0e 3e 4f a4 45 be 7d 3e 65 be
       0.23492993 0.13962483 -0.1930096 -0.22387119
000230 a8 cb 6b be 6d 50 3f be b9 8e a8 3e 70 93 ed be
       -0.23026907 -0.18683024 0.3292139 -0.46401548
000240 ed 34 fb bb 71 26 de 3e 29 2e 28 3e e3 5c 85 be
       -0.0076662214 0.43388703 0.16423859 -0.2604743
000250 95 eb 3a bd 66 47 bb be 4f 97 47 be b0 dc ae be
       -0.045634825 -0.3657791 -0.19491313 -0.34152746
000260 40 67 e9 be d1 dd 86 3e b4 7c 1c be e3 e0 89 be
       -0.45586586 0.26341107 -0.15281945 -0.26929387
000270 eb 74 09 be b3 15 16 be 66 c5 f6 bd cd e4 62 3d
       -0.13423507 -0.14656715 -0.120493695 0.055393983
000280 6d 80 63 be 8c 99 b9 3d ed 69 1d 3e 5f 3f 94 3e
       -0.2221696 0.0906249 0.15372439 0.28954598
000290 27 eb 16 be ee 9a fa bd d7 8f 9a 3e 40 41 53 be
       -0.14738141 -0.12236582 0.30187866 -0.2063036
0002a0 69 27 c0 be 88 a4 f8 bd 08 c7 7e 3e b0 88 c5 bc
       -0.37530068 -0.12140757 0.24880612 -0.02411303
0002b0 ac 2d 45 3e 02 43 91 be 42 dc 48 3e 50 7b 56 be
       0.19255704 -0.28371435 0.19615272 -0.20945477
0002c0 71 fb 90 be 90 ed ab bd f0 9a a2 3e 33 91 35 3e
       -0.28316835 -0.08394921 0.31758833 0.1773117
0002d0 1c 60 05 3e 3d 25 9c bd d8 26 9f 3e 2b 9e 4e 3d
       0.13024944 -0.0762429 0.31084323 0.05044381
0002e0 23 84 88 3e 36 04 60 be 84 bc e5 bd 3b 24 48 be
       0.26663312 -0.21876606 -0.11217597 -0.19545071
0002f0 cd 6d 00 be 94 30 09 bd 68 68 ee 3e db df b1 bd
       -0.12541886 -0.033493593 0.4656403 -0.08685275
000300 d5 e4 34 3e 52 45 99 be 7a ad 90 3e 78 c1 5b 3d
       0.17665417 -0.299357 0.28257352 0.053651303
000310 6a 11 49 be 33 d5 c5 3b 44 af 8a be 19 92 a0 bc
       -0.19635549 0.006037378 -0.27086842 -0.019600915
000320 bd 96 93 be 4b ab b3 be c0 a6 b6 3e 00 9c 6a 3e
       -0.28825942 -0.35091624 0.35674095 0.22911072
000330 cc c4 3b 3e 7f a7 9f 3e 8a 6a c5 be 12 25 45 be
       0.18336791 0.31182477 -0.38557845 -0.19252422
000340 e9 f3 30 be 1c 59 75 be 73 85 b2 bd a9 bc d1 3e
       -0.17280544 -0.23959774 -0.0871686 0.4096425
000350 b7 94 d5 be e0 39 21 3d 12 50 16 3e 94 40 70 be
       -0.41715023 0.039361835 0.14678982 -0.23462135
000360 b6 18 c4 3e 96 ca 8a 3e ec 06 01 3f 3c c3 e4 3e
       0.38300103 0.27107686 0.50401187 0.44680202
000370 a4 94 2e 3e fd 5e 9f be 9e f4 40 be 24 5e 97 3e
       0.1704889 -0.31127158 -0.18843314 0.2956401
000380 17 01 d5 be 50 d8 95 3e b1 15 ce be fe 38 c0 be
       -0.41602394 0.29266596 -0.40250924 -0.37543482
000390 90 b8 ce 3e 91 c5 da 3d 13 08 64 bd 8a 29 09 3d
       0.40375185 0.10682214 -0.055671763 0.03348688
0003a0 39 d0 d6 bc 31 40 b3 be 9e db 36 bd 33 e9 d5 3e
       -0.026222335 -0.35009912 -0.044643037 0.4177948
0003b0 be 00 09 3f 98 94 c4 be 96 2b 17 be 4f af 12 3e
       0.5351676 -0.38394618 -0.1476272 0.14324687
0003c0 f0 f2 4a bd 0a 1d b4 3e 2e d4 91 bd 75 5f 48 be
       -0.04954809 0.35178405 -0.07120548 -0.19567664
0003d0 a7 3d d8 3d db 9a 1f bd a6 2f 6a 3e 39 6b a6 be
       0.10558634 -0.03896604 0.22869739 -0.3250368
0003e0 13 2f a9 3e 3a 72 46 be 95 2d 1e bd 62 71 d6 3d
       0.33043727 -0.19379511 -0.03861769 0.10470845
0003f0 7a e0 52 3d 52 50 b3 bd 9e 61 8a 3e 34 46 42 bd
       0.05148361 -0.08755554 0.270276 -0.047430232

block1.temporal1.conv3.bias f4 [64]
000000 02 a8 f6 bd fc 59 a0 be 2f ea f4 be 89 41 9b 3e
       -0.12043764 -0.31318653 -0.47834918 0.30323437
000010 35 d7 34 3e 38 e3 b4 3e 22 ef a0 3d c1 b2 fe be
       0.1766022 0.35329604 0.07858111 -0.49745753
000020 a1 d5 7c be 41 f6 d5 be db 5b d8 3e bb 52 4d be
       -0.24690868 -0.4178944 0.4225758 -0.2005109
000030 85 5b 1a bd 5a de 98 3e be 63 17 3e 72 61 11 be
       -0.037684936 0.2985714 0.14784142 -0.14197329
000040 d2 5a 9c 3d 1a 5b e1 3e a1 5d d7 3c 00 19 1b bf
       0.0763451 0.44014817 0.026289763 -0.6058502
000050 ae bd c6 3e 8c c7 56 3e 0e 20 45 be 61 28 0e be
       0.3881659 0.20974559 -0.19250509 -0.13882591
000060 63 04 87 be 39 c7 41 bd 62 df 1d bf 1f 46 22 3e
       -0.26370534 -0.047309134 -0.6166898 0.15847062
000070 0f a1 a3 3e 01 76 6d be 81 ba e6 3d a1 47 3c be
       0.31958815 -0.23189546 0.112660415 -0.183867
000080 78 7f ac 3e 63 a1 80 3e 4e f4 1e be 7a 04 c9 bd
       0.33691 0.25123128 -0.15522882 -0.09815307
000090 ed 63 23 3e 1f ae 0c bf 4e 6e 48 3e dc e8 f3 be
       0.15956087 -0.5495319 0.19573328 -0.47638595
0000a0 e2 0e 1a be 0a 70 03 bf 27 6f 04 3e f0 c8 35 3e
       -0.1504474 -0.51342833 0.12933026 0.17752433
0000b0 be cd 9b 3d aa 53 6e 3d 0b bd 98 be c7 d1 2e bf
       0.076076016 0.058185257 -0.29831728 -0.68288845
0000c0 84 a4 2e bf 4a cd 2b 3d 8e e2 b7 3e e6 f4 af 3d
       -0.6821978 0.041943826 0.35915035 0.085916325
0000d0 c2 d1 d0 bd 1d 8d aa 3e 53 02 c3 3e 24 c5 7c be
       -0.10196258 0.33310786 0.3808771 -0.24684578
0000e0 74 c5 00 bf 84 62 22 bf ae 0b 5b be 6e c7 d4 be
       -0.5030129 -0.6343157 -0.21391174 -0.41558403
0000f0 b3 1c 9d be 65 94 9d 3c 17 dc b3 3e 66 71 6b 3e
       -0.30685958 0.0192358 0.35128853 0.22992477

block1.temporal2.conv1.weight f4 [64, 16, 1, 3]
000000 94 d0 0e be 9b 60 aa bb eb 30 5d bf e3 a2 cc bd
       -0.13946754 -0.0051995046 -0.8640277 -0.09992006
000010 67 1b 2c be f2 f4 3e be 7d 1b 10 be 52 57 e8 bd
       -0.16807328 -0.18648127 -0.14072986 -0.1134478
000020 e6 c4 98 3e 2a ef aa 3d ea b3 14 3d 42 59 a7 3e
       0.29837722 0.08346398 0.036304392 0.32685286
000030 a2 ca ba 3c 2c 9b e7 3d 34 d8 6d 3e 81 35 01 3d
       0.022801701 0.113088936 0.23227006 0.031545166
000040 3e 29 e6 3d 73 df 4d 3e 7d 85 6b 3d f7 98 dc bc
       0.11238335 0.2010477 0.05750035 -0.026928408
000050 df 75 e0 bb ba 85 2a 3e aa 60 f9 bc 0d b9 18 3e
       -0.006849989 0.16652575 -0.0304416 0.14914341
000060 ea 50 64 3b 89 e7 04 3e 99 39 26 bd ba dd b9 3d
       0.0034838268 0.12978949 -0.040582273 0.09075494
000070 56 c5 26 3e b8 77 54 3d dc 35 83 be 06 c3 08 be
       0.16286215 0.051871985 -0.2562703 -0.13355646
000080 07 77 a0 bf 12 70 29 3d 81 40 59 3d c8 49 8e 3e
       -1.2536324 0.041366644 0.05304003 0.27790666
000090 62 34 34 bd 51 46 25 be 7f a5 81 bd 29 64 61 bd
       -0.04399527 -0.16140105 -0.06330394 -0.05502716
0000a0 9a 01 e2 bd 68 55 0a bc 09 73 0f be 0a 1d 02 be
       -0.11035462 -0.008443214 -0.14008726 -0.1270639
0000b0 06 98 b5 bd 02 f3 9d 3d 74 0a e3 bd 08 58 0d 3e
       -0.08866887 0.07712366 -0.11085978 0.13803113
0000c0 2a 5d 94 be bf b2 56 bd 13 15 f4 3c a1 e2 ed ba
       -0.2897733 -0.05241656 0.029795205 -0.0018149206
0000d0 f2 76 c8 3d 4a 65 a8 bc d8 72 c4 bd 46 21 1c 3e
       0.09788312 -0.02055611 -0.09592217 0.15247068
0000e0 25 99 9f bc c2 39 2d be f7 48 13 3e 5a 7e 83 3e
       -0.019482205 -0.16916564 0.14383303 0.25682336
0000f0 03 08 00 3d 79 a1 38 3e db 1b b2 be c3 eb 00 3e
       0.03125764 0.18030347 -0.34786877 0.12589936
000100 af 60 62 bd a8 20 02 3e 1a 27 10 bd 9d aa 0d be
       -0.055267986 0.1270777 -0.03519354 -0.13834615
000110 d4 fe e5 bc 84 3e 1a bd ab 7a 44 3d 7b 92 2e 3d
       -0.028075613 -0.037657276 0.047968548 0.042620163
000120 33 c7 48 bd 2b f8 c3 bd 74 9c 56 3d b2 45 2c 3d
       -0.049018096 -0.09568819 0.0523953 0.042058654
000130 1e a7 ee bd c2 0c 60 3e f7 e5 02 bd b2 96 a4 3d
       -0.11652969 0.21879867 -0.031957593 0.08036555
000140 2e f5 2f 3e 69 74 e0 bd ad 6b 36 be b7 bf a8 bc
       0.17183372 -0.109597035 -0.17814513 -0.02059923
000150 49 65 cf bc 27 e8 63 bd 2f 02 1c 3d a6 a9 15 be
       -0.025316851 -0.05564132 0.03808802 -0.14615497
000160 68 67 23 3b 99 c0 49 be b5 a1 b6 bd 69 ad d5 bd
       0.002493346 -0.19702376 -0.08917562 -0.10433466
000170 04 9f b6 bc 28 c8 90 3c b4 a1 f2 3d 80 c9 a8 bb
       -0.022292621 0.017673567 0.11847249 -0.005150974
000180 7b cd 47 be 02 30 12 3e c5 d4 0f 3e d9 e0 fa 3c
       -0.19511978 0.14276126 0.14046009 0.030624794
000190 e8 b7 33 bd dc 68 07 3d 93 2d 24 bd 98 a6 06 be
       -0.04387656 0.033058986 -0.040082525 -0.13149488
0001a0 63 d6 22 be 39 4d bb 3d c9 3e 62 bc 1d 83 6d be
       -0.15902095 0.091455884 -0.013808914 -0.23194547
0001b0 fb a1 53 be 2e 2b 8e 3e 3c c2 28 3e 19 c1 25 3e
       -0.2066726 0.27767318 0.16480345 0.16186942
0001c0 c3 8a ae bc fa f9 2b be 70 69 48 bd 64 58 f2 bd
       -0.021306401 -0.16794577 -0.048928678 -0.118332654
0001d0 aa 55 0a be 07 08 63 3e 77 4d 5f 3e 27 d1 3b bd
       -0.13509241 0.22171031 0.21806894 -0.04585376
0001e0 8d bf 22 3d ed 81 cc 3d 59 8a 24 bd 87 d3 2f 3e
       0.03973346 0.09985719 -0.040171 0.17170535
0001f0 48 c8 2f 3d fa 9e 19 be f7 36 85 be 53 64 a2 bd
       0.042915612 -0.15002051 -0.26018497 -0.079292916
000200 ea 02 36 3e 06 73 41 3e e7 c8 3a 3d 45 67 85 be
       0.17774549 0.18891534 0.04560175 -0.2605535
000210 74 21 b9 3d 08 e6 10 bc 93 4c 81 3c ba e2 30 bf
       0.09039584 -0.008843906 0.015783584 -0.6909596
000220 a1 2c d2 be 85 b2 21 bf a0 7a 29 3d 44 49 9d bd
       -0.41049674 -0.63163024 0.04137671 -0.0767999
000230 70 06 b5 3d 60 a6 9e 3d 80 af 7e bb 40 eb a9 3d
       0.088391185 0.07746577 -0.003886193 0.082968235
000240 e7 c3 dd 3d 50 8d 76 3d 34 6e 98 be 61 cf 1c 3d
       0.10828381 0.06019336 -0.29771578 0.03828371
000250 5b 0a 7b bb ba af a6 3c fe 2b 98 bc e8 83 90 3d
       -0.0038305733 0.020347465 -0.018575665 0.07056409
000260 01 27 bb bd 95 e9 35 3e 75 e5 45 3e ae c7 5b bd
       -0.09138299 0.17764886 0.19325812 -0.053657226
000270 2a 42 72 be 99 d1 27 be 69 31 a7 bd 82 96 18 3e
       -0.23658052 -0.16388549 -0.08163721 0.14901164
000280 83 66 d8 3c 9b 71 7f be 53 fd 22 bd 42 cf 32 bd
       0.026416069 -0.24945681 -0.03979237 -0.043654688
000290 7d 53 a5 bd d8 94 44 3d 96 9a 75 bd 25 c2 28 be
       -0.08072565 0.04799351 -0.059961878 -0.1648031
0002a0 3b 69 cc bd 02 9e d5 bd 8b fc d9 bc e8 52 9d 3d
       -0.099810086 -0.10430528 -0.02660968 0.07681829
0002b0 8d 89 5b bb 77 55 83 bd 29 5d a5 3d 2c 2e 1d 3e
       -0.0033498735 -0.064127855 0.080744095 0.15349644
0002c0 b3 4a e0 3d a2 65 56 3d 5b 48 04 be b0 ca 50 be
       0.10951748 0.05234302 -0.12918226 -0.20389819
0002d0 d4 39 77 bd 07 39 98 bd 35 1f 45 3e 2e fc 45 3e
       -0.060357884 -0.07432752 0.19250186 0.1933448
0002e0 6a d1 4f 3d 9b 78 ab bc c5 cc d2 3d 57 ea a2 bd
       0.050736822 -0.020931533 0.10292963 -0.07954853
0002f0 51 e9 db bd a0 33 9c bb 7e d9 3e bd 32 e7 c2 bd
       -0.10737861 -0.0047668964 -0.046594135 -0.09516753
000300 28 db f1 bd 99 95 d5 3d b1 d1 35 be 9c 03 3f be
       -0.11809379 0.10428924 -0.17755772 -0.1865372
000310 a2 05 b3 3c 14 6b 01 bd 83 e9 49 3d 70 2b b9 be
       0.021853272 -0.03159626 0.04929496 -0.36165953
000320 08 c0 92 bf c1 aa 39 bd 11 12 b8 bd e2 76 1c bf
       -1.1464853 -0.04532886 -0.08987821 -0.611189
000330 cd b6 9b bc 5b 51 f2 3d fd d0 9e 3d 0b c4 e6 3d
       -0.019008065 0.118319236 0.07754705 0.11267861
000340 fd d5 14 be 26 c7 e4 be 6d fa 21 bc 23 d0 df bd
       -0.14534755 -0.44683188 -0.009886366 -0.10928371
000350 ca 31 d7 bd 83 00 e7 3d 0d 81 a3 be ae 7d 3e bf
       -0.105075434 0.112793945 -0.31934395 -0.7441052
000360 bf 42 74 bd 3a a1 a0 bd a8 a8 1b 3d 65 f0 7c 3e
       -0.059633967 -0.078432515 0.03800264 0.24701078
000370 e3 89 c3 3d 58 45 d5 bd 18 21 96 3a 98 e4 88 3c
       0.09547784 -0.10413617 0.0011453955 0.016710564
000380 27 4d 08 bd 79 4d 36 3d 67 93 94 be 0d 3f ac bf
       -0.033276703 0.044507477 -0.2901871 -1.3456742
000390 99 a2 20 3d f4 ad be 3d 32 ed cd 3e 45 92 89 3e
       0.039217565 0.09310523 0.40220028 0.26869407
0003a0 3c 0d 0c be 70 c5 d1 3e 22 71 0b bd d4 0f a9 3d
       -0.13676924 0.40970945 -0.03404344 0.08254972
0003b0 45 d8 8a bd 04 40 fa 3d 90 5e 27 bc 48 48 4b 3d
       -0.067795314 0.12219241 -0.010215417 0.04962948
0003c0 42 ad 9e 3b 82 ae ac bd 29 ba 1b 3d 01 ab f5 3d
       0.0048424313 -0.08431722 0.038019333 0.11995507
0003d0 6e c0 25 bd 5d 54 d7 3d a3 5f f1 3d e1 2f 85 3c
       -0.04046672 0.10514138 0.117858194 0.016258182
0003e0 58 f1 c4 3d c8 dd 0b 3e ab 32 05 3d 1f 02 b6 bd
       0.09616345 0.13658822 0.032519024 -0.08887123
0003f0 3f 6c ce 3d ba 20 66 3c f6 6a a3 3e 7f 45 02 3e
       0.1007924 0.014045889 0.31917542 0.12721823

block1.temporal2.conv1.bias f4 [64]
000000 33 e8 63 3c 19 96 83 bd 32 25 91 3d 12 49 68 3e
       0.013910341 -0.06425113 0.070871726 0.22684124
000010 d5 da 40 3e ca b7 b8 3d bf 8a 3e bd f2 3a 26 3e
       0.18833478 0.0901943 -0.046519037 0.16233423
000020 b5 e4 a9 3c 56 2f de 3d ca a9 41 3e be 1e 0e 3e
       0.020738939 0.10848872 0.18912426 0.13878915
000030 0f 23 84 3e 5b 57 01 bb 94 65 26 3e 32 bf 18 3e
       0.25807998 -0.0019735906 0.16249686 0.14916685
000040 2c ee 0e 3d a2 51 9e 3b a2 f8 ad 3d 1c 1a 33 be
       0.034895107 0.0048315087 0.084946886 -0.17490429
000050 1c 43 90 3d 5a 5d 70 3e 5e db 8f bd 7e 0d b7 3e
       0.0704405 0.23473111 -0.07024263 0.3575248
000060 9a 2f 7e 3e 2e d5 30 bd 1e c8 86 3d 8f 6a 5f be
       0.24822846 -0.043172054 0.06581138 -0.21817993
000070 b1 8a 9b 3d 3e c3 f1 3d 56 87 04 3e 17 20 17 3e
       0.07594813 0.118048176 0.12942252 0.14758335
000080 2b 6e 00 3e d5 35 51 bd 75 ae ff 3d e0 2f 4e bc
       0.12542026 -0.05107673 0.12484447 -0.0125846565
000090 fc 8e a1 3e 1f 76 d0 3d c0 16 07 be c9 87 24 3e
       0.315544 0.1017878 -0.13192272 0.16067423
0000a0 86 3c 96 3e 3c c7 4f bd e7 a4 47 be 44 00 bd 3d
       0.2934305 -0.050727114 -0.19496499 0.09228566
0000b0 ec e3 27 3e e0 22 b3 3d 66 e6 af bd 36 3a 92 3e
       0.16395539 0.08746886 -0.08588867 0.28560036
0000c0 ba 9f 86 3e 3d bf 02 3d ac 5f 26 3e 14 06 53 bd
       0.26293737 0.03192066 0.16247433 -0.05151947
0000d0 5f 97 cd 3d ff 88 43 3e bb 99 c7 3d 29 7d b8 bb
       0.10038637 0.19095229 0.09746119 -0.0056301546
0000e0 73 d5 73 3e 5a c0 0f 3e 86 8f e0 bd ef 8f 78 3c
       0.23811893 0.1403822 -0.10964875 0.015171035
0000f0 24 ea 0c 3e 18 8c 88 3e dc cb 78 3d b5 6b ac 3e
       0.13761193 0.26669383 0.06074129 0.33675924

block1.temporal2.conv2.weight f4 [64, 16, 1, 3]
000000 27 c3 8d bc b5 ee 98 be 96 56 6e bf dd 84 6b bd
       -0.01730497 -0.2986962 -0.9310087 -0.057499755
000010 56 67 f2 bb b7 4c ed bb a8 1f ee 3c dc b5 84 bc
       -0.0073975725 -0.007241811 0.02906783 -0.016199999
000020 90 4f 87 3e e5 13 b2 bd e3 be 45 3c 5a 57 70 3e
       0.2642789 -0.08695201 0.012069437 0.23470822
000030 51 70 05 bd 42 4b 23 3e b6 b7 53 3d 22 db e8 bd
       -0.032577816 0.15946677 0.051688872 -0.11369921
000040 2b 7a 59 bd a7 02 6c 3e c5 a7 d9 bd 96 dc a8 bd
       -0.053095024 0.23047887 -0.106277026 -0.082451984
000050 f9 d7 82 bd e2 ce 17 3d 14 49 31 3d 5f cb 81 3e
       -0.0638885 0.037062533 0.043282583 0.25350472
000060 00 72 18 be b2 48 87 3d e6 d9 5b 3d b7 eb 80 bc
       -0.14887238 0.066056624 0.0536746 -0.015737398
000070 2b 34 c2 3d da 46 3e 3e 37 55 1b be 3a 57 1c bd
       0.094826065 0.18581715 -0.15169226 -0.038169123
000080 a1 3b 84 bf 10 38 ba bd b8 28 e3 bb a2 24 8c 3e
       -1.0330697 -0.09092724 -0.0069323443 0.273717
000090 27 77 a6 3d 94 b0 29 bd de 25 36 3e a8 bc c7 bd
       0.08128195 -0.041428164 0.17787883 -0.0975278
0000a0 34 3c d4 3d f9 a3 d8 3d 22 68 0e 3e 0a 96 06 3e
       0.10363045 0.1057815 0.13906911 0.13143173
0000b0 0d 33 96 bd 1c 23 fa bc 54 63 cb 3d 2e ac 91 bd
       -0.07333956 -0.03053432 0.09931055 -0.07112919
0000c0 31 08 50 be 1c e6 13 3e 50 1d b4 bd 09 a1 09 be
       -0.20315625 0.14443249 -0.087946534 -0.13440336
0000d0 5c cd 59 bd f9 49 d1 3d f3 65 89 be cf e4 8c bd
       -0.05317436 0.10219187 -0.26835594 -0.06879579
0000e0 12 15 d2 3d 83 9e 2a be 2f 52 4c bc 7f 1b 8c 3e
       0.10257925 -0.1666203 -0.012470766 0.27364728
0000f0 6f 61 29 3e a1 3f 06 3d 08 74 90 be d8 f7 49 39
       0.16541074 0.032775525 -0.28213525 0.00019261183
000100 03 ef 10 3d 1b 2a 16 3e ff 59 98 bd 09 5f 40 3c
       0.03538419 0.146645 -0.074390404 0.011741408
000110 45 23 f7 3d 97 61 f2 3a 6c f0 c2 3d 4e b6 b6 3d
       0.12067274 0.0018492219 0.09518513 0.089214906
000120 27 81 64 3e c3 f8 0e be 39 a1 a0 bb ef f2 1f be
       0.22314893 -0.13962083 -0.0049020317 -0.15620016
000130 52 3d 1a be a4 a2 5e bd d4 3c 36 3e 9d 5e 9e 3c
       -0.15062454 -0.054354325 0.17796642 0.019332225
000140 9c fd 47 3d d3 b1 fc bd d5 23 11 bd 9e 6d 5e be
       0.048825845 -0.12338605 -0.035434563 -0.21721503
000150 61 68 ef 3d af fc 10 be dd ee ec 3c 8b c8 54 be
       0.116898306 -0.14158891 0.028922493 -0.20779626
000160 1a 60 5d 3c 5f 89 30 be 07 a7 9a bd 34 dd 6b 3d
       0.013511682 -0.17239903 -0.07551389 0.057584003
000170 88 d6 eb 3d 08 bf fe 3d dc f3 2f bd 3e 1f b6 bd
       0.11515528 0.1243878 -0.04295717 -0.08892678
000180 24 5f 71 be 91 08 27 3e 7c d1 53 3d f2 3e e7 3d
       -0.2357145 0.16311862 0.05171345 0.11291303
000190 5c cd 57 be 84 01 9c bd 2a b8 90 bd 4d a7 fa bc
       -0.21074432 -0.076174766 -0.070663765 -0.030597353
0001a0 53 6b 4c be 1a 0b 5f 3b 92 b7 88 bd 3d a9 0f be
       -0.19962816 0.0034033717 -0.06675638 -0.14029403
0001b0 64 24 86 be 3b e0 f4 3c 45 2a b0 bd 43 55 e7 3d
       -0.2619964 0.029892078 -0.08601812 0.11295559
0001c0 c8 57 86 3e 15 ea 09 be b3 2d b6 3d 03 5a 1e 3d
       0.26238847 -0.13468201 0.08895435 0.03866006
0001d0 f5 4b 36 be 48 26 47 3e b8 ac bf 3d c5 2e 02 be
       -0.17802413 0.19448197 0.09359115 -0.12713154
0001e0 49 af 4a bd cb 4a d3 3d d9 b0 21 3e 12 21 26 3e
       -0.04948357 0.10317 0.15790118 0.16223553
0001f0 00 38 f3 bd 86 77 de bc 01 08 82 be b8 59 9d 3c
       -0.118759155 -0.027156603 -0.25396731 0.01920782
000200 10 ef 19 3d 00 30 93 3d a6 ad 92 3d 72 60 bd bd
       0.037581503 0.0718689 0.07162027 -0.09246911
000210 53 8d 2e bd e7 7f bb 3b 8e ba 08 3d 6d 84 42 bf
       -0.042615246 0.0057220343 0.033381037 -0.75983316
000220 b8 6a f2 be fc a0 c5 be f6 22 01 3e 35 22 bb bd
       -0.47347045 -0.38599384 0.12610993 -0.09137384
000230 68 ea 02 3e ee 67 05 3e 00 e6 ee bd 00 71 73 bb
       0.12784731 0.13027927 -0.11664963 -0.003714621
000240 f3 ab 5a 3e 89 e2 8f 3e ad d3 59 be 73 ae c6 3e
       0.21354656 0.2810252 -0.21272154 0.3880497
000250 75 7f ac 3e 0d cc 4b 3e 61 82 47 bd 6a 1c f3 bc
       0.33690992 0.19902058 -0.048708323 -0.029676635
000260 d0 1d 34 be e7 77 df 3d 78 67 61 bd 2b da 6e be
       -0.17589498 0.109115414 -0.055030316 -0.23325412
000270 b3 ee 99 3d 9b 3c 00 be 26 21 3b 3e 7f dc 64 3e
       0.075162314 -0.12523119 0.18274364 0.22349738
000280 c4 91 6c 3e 7c 5b 83 bc 48 69 9e 3c f3 78 ad 3b
       0.2310248 -0.016034834 0.019337311 0.0052939593
000290 9a 2a a3 3d ef 78 07 3f 13 82 91 3e cc df 85 3e
       0.0796711 0.52918905 0.2841955 0.26147306
0002a0 ea 5e 95 3e b4 2d 14 3e 57 4d d9 3e b9 b5 1e 3e
       0.29173976 0.1447056 0.42441818 0.15499009
0002b0 c1 7b 25 3e c8 a8 d5 3d a6 0b f8 3e 4a 23 23 3f
       0.1616049 0.10432583 0.48446387 0.6372572
0002c0 8f 42 96 3e ab b5 0b 3f 14 52 f6 3e fd d7 ab 3e
       0.29347655 0.5457408 0.48109496 0.33563223
0002d0 3c 90 c3 be e5 43 7c be 3d 4d 59 be fc ff ea 3d
       -0.3819598 -0.24635275 -0.2122087 0.114746064
0002e0 4d 5d b5 bd 6d eb 6f be 18 c7 20 3d 28 43 c8 bc
       -0.08855686 -0.23429652 0.03925237 -0.024446085
0002f0 44 b6 2f 3d 18 b5 6e bd 16 ce 03 be e8 34 f3 3d
       0.04289843 -0.058278173 -0.12871584 0.118753254
000300 b2 6e 8b bd bf 41 f0 3d 2c 63 18 bc e5 18 35 be
       -0.06808223 0.1173129 -0.009300988 -0.17685278
000310 e8 ca f0 bd 6c ba 23 be 05 9e 94 bd 89 e0 e2 be
       -0.11757451 -0.15989083 -0.07256702 -0.44311932
000320 c3 9f 94 bf 3f cb 16 be 89 f7 47 bc 53 a4 1a bf
       -1.1611255 -0.1472597 -0.012205013 -0.6040699
000330 6e 82 09 bd c1 0d 14 3d 7b fc a5 bd fd 2f 51 3d
       -0.033571653 0.03614593 -0.081047975 0.051071156
000340 a2 c4 bc bd 18 bb ba be 81 30 d7 bd 9a f7 61 3d
       -0.09217192 -0.36470866 -0.10507298 0.055167772
000350 1a 8d fc bd b0 03 6e 3e 20 27 c1 be bb 99 43 bf
       -0.123316005 0.23243594 -0.37725163 -0.7640645
000360 2c 70 9f 3d 88 8a 0c be bf ab 47 be 7a 30 71 3e
       0.07785067 -0.1372472 -0.1949911 0.23553649
000370 56 2a 4f 3e 38 49 90 bd f3 94 b6 3d ba 22 5a 3e
       0.20230994 -0.07045215 0.089151286 0.2130231
000380 e6 e9 57 3d 62 09 e9 3d 57 b7 c8 bd 0e 3b c0 bf
       0.052713297 0.11378743 -0.09800594 -1.5018022
000390 61 19 b0 bd 1d 9a 12 3d 7b 35 af 3e e1 fe 19 3e
       -0.08598591 0.035791505 0.3422049 0.15038635
0003a0 82 8a f6 bd ff f4 88 3e 5a 44 56 3d 28 0e 8c 3d
       -0.12038137 0.26749417 0.05231128 0.068386376
0003b0 e4 4e 43 3d 00 13 1f ba 30 d0 1a 3c e0 18 52 3c
       0.047682658 -0.00060682 0.00944905 0.0128233135
0003c0 c4 a3 2a be 23 1c b4 bd cc 87 18 be 06 e1 b7 3d
       -0.16664034 -0.08794429 -0.14895552 0.08978467
0003d0 51 c5 db 3d 45 53 90 bc 6a c5 22 be a1 65 29 bd
       0.107309945 -0.017617831 -0.1589562 -0.041356687
0003e0 99 59 6c bd 07 31 73 bd 7a 7c 58 bc 25 14 14 be
       -0.057702634 -0.059372928 -0.013213271 -0.1446081
0003f0 fd a4 2a 3c ba 22 46 be 5b 5d c8 3e 21 15 8d 3d
       0.010415313 -0.19349185 0.39133725 0.06888796
